{"class_name": "Functional", "config": {"name": "model", "layers": [{"class_name": "InputLayer", "config": {"batch_input_shape": [null, 40, 34], "dtype": "float32", "sparse": false, "ragged": false, "name": "input_1"}, "name": "input_1", "inbound_nodes": []}, {"class_name": "BatchNormalization", "config": {"name": "batch_normalization", "trainable": true, "dtype": "float32", "axis": [2], "momentum": 0.99, "epsilon": 0.001, "center": true, "scale": true, "beta_initializer": {"class_name": "Zeros", "config": {}}, "gamma_initializer": {"class_name": "Ones", "config": {}}, "moving_mean_initializer": {"class_name": "Zeros", "config": {}}, "moving_variance_initializer": {"class_name": "Ones", "config": {}}, "beta_regularizer": null, "gamma_regularizer": null, "beta_constraint": null, "gamma_constraint": null}, "name": "batch_normalization", "inbound_nodes": [[["input_1", 0, 0, {}]]]}, {"class_name": "Bidirectional", "config": {"name": "bidirectional", "trainable": true, "dtype": "float32", "layer": {"class_name": "GRU", "config": {"name": "gru", "trainable": true, "dtype": "float32", "return_sequences": true, "return_state": false, "go_backwards": false, "stateful": false, "unroll": false, "time_major": false, "units": 128, "activation": "tanh", "recurrent_activation": "sigmoid", "use_bias": true, "kernel_initializer": {"class_name": "GlorotUniform", "config": {"seed": null}, "shared_object_id": 6}, "recurrent_initializer": {"class_name": "Orthogonal", "config": {"gain": 1.0, "seed": null}, "shared_object_id": 7}, "bias_initializer": {"class_name": "Zeros", "config": {}, "shared_object_id": 8}, "kernel_regularizer": null, "recurrent_regularizer": null, "bias_regularizer": null, "activity_regularizer": null, "kernel_constraint": null, "recurrent_constraint": null, "bias_constraint": null, "dropout": 0.0, "recurrent_dropout": 0.0, "implementation": 2, "reset_after": true}}, "merge_mode": "concat"}, "name": "bidirectional", "inbound_nodes": [[["batch_normalization", 0, 0, {}]]]}, {"class_name": "Bidirectional", "config": {"name": "bidirectional_1", "trainable": true, "dtype": "float32", "layer": {"class_name": "GRU", "config": {"name": "gru_1", "trainable": true, "dtype": "float32", "return_sequences": true, "return_state": false, "go_backwards": false, "stateful": false, "unroll": false, "time_major": false, "units": 128, "activation": "tanh", "recurrent_activation": "sigmoid", "use_bias": true, "kernel_initializer": {"class_name": "GlorotUniform", "config": {"seed": null}, "shared_object_id": 12}, "recurrent_initializer": {"class_name": "Orthogonal", "config": {"gain": 1.0, "seed": null}, "shared_object_id": 13}, "bias_initializer": {"class_name": "Zeros", "config": {}, "shared_object_id": 14}, "kernel_regularizer": null, "recurrent_regularizer": null, "bias_regularizer": null, "activity_regularizer": null, "kernel_constraint": null, "recurrent_constraint": null, "bias_constraint": null, "dropout": 0.0, "recurrent_dropout": 0.0, "implementation": 2, "reset_after": true}}, "merge_mode": "concat"}, "name": "bidirectional_1", "inbound_nodes": [[["bidirectional", 0, 0, {}]]]}, {"class_name": "Dropout", "config": {"name": "dropout", "trainable": true, "dtype": "float32", "rate": 0.2, "noise_shape": null, "seed": null}, "name": "dropout", "inbound_nodes": [[["bidirectional_1", 0, 0, {}]]]}, {"class_name": "TimeDistributed", "config": {"name": "time_distributed", "trainable": true, "dtype": "float32", "layer": {"class_name": "Dense", "config": {"name": "dense", "trainable": true, "dtype": "float32", "units": 128, "activation": "relu", "use_bias": true, "kernel_initializer": {"class_name": "GlorotUniform", "config": {"seed": null}}, "bias_initializer": {"class_name": "Zeros", "config": {}}, "kernel_regularizer": null, "bias_regularizer": null, "activity_regularizer": null, "kernel_constraint": null, "bias_constraint": null}}}, "name": "time_distributed", "inbound_nodes": [[["dropout", 0, 0, {}]]]}, {"class_name": "Dropout", "config": {"name": "dropout_1", "trainable": true, "dtype": "float32", "rate": 0.2, "noise_shape": null, "seed": null}, "name": "dropout_1", "inbound_nodes": [[["time_distributed", 0, 0, {}]]]}, {"class_name": "TimeDistributed", "config": {"name": "time_distributed_1", "trainable": true, "dtype": "float32", "layer": {"class_name": "Dense", "config": {"name": "dense_1", "trainable": true, "dtype": "float32", "units": 128, "activation": "relu", "use_bias": true, "kernel_initializer": {"class_name": "GlorotUniform", "config": {"seed": null}}, "bias_initializer": {"class_name": "Zeros", "config": {}}, "kernel_regularizer": null, "bias_regularizer": null, "activity_regularizer": null, "kernel_constraint": null, "bias_constraint": null}}}, "name": "time_distributed_1", "inbound_nodes": [[["dropout_1", 0, 0, {}]]]}, {"class_name": "TimeDistributed", "config": {"name": "time_distributed_2", "trainable": true, "dtype": "float32", "layer": {"class_name": "Dense", "config": {"name": "dense_3", "trainable": true, "dtype": "float32", "units": 128, "activation": "relu", "use_bias": true, "kernel_initializer": {"class_name": "GlorotUniform", "config": {"seed": null}}, "bias_initializer": {"class_name": "Zeros", "config": {}}, "kernel_regularizer": null, "bias_regularizer": null, "activity_regularizer": null, "kernel_constraint": null, "bias_constraint": null}}}, "name": "time_distributed_2", "inbound_nodes": [[["dropout_1", 0, 0, {}]]]}, {"class_name": "TimeDistributed", "config": {"name": "time_distributed_3", "trainable": true, "dtype": "float32", "layer": {"class_name": "Dense", "config": {"name": "dense_5", "trainable": true, "dtype": "float32", "units": 128, "activation": "relu", "use_bias": true, "kernel_initializer": {"class_name": "GlorotUniform", "config": {"seed": null}}, "bias_initializer": {"class_name": "Zeros", "config": {}}, "kernel_regularizer": null, "bias_regularizer": null, "activity_regularizer": null, "kernel_constraint": null, "bias_constraint": null}}}, "name": "time_distributed_3", "inbound_nodes": [[["dropout_1", 0, 0, {}]]]}, {"class_name": "TimeDistributed", "config": {"name": "time_distributed_4", "trainable": true, "dtype": "float32", "layer": {"class_name": "Dense", "config": {"name": "dense_7", "trainable": true, "dtype": "float32", "units": 128, "activation": "relu", "use_bias": true, "kernel_initializer": {"class_name": "GlorotUniform", "config": {"seed": null}}, "bias_initializer": {"class_name": "Zeros", "config": {}}, "kernel_regularizer": null, "bias_regularizer": null, "activity_regularizer": null, "kernel_constraint": null, "bias_constraint": null}}}, "name": "time_distributed_4", "inbound_nodes": [[["dropout_1", 0, 0, {}]]]}, {"class_name": "TimeDistributed", "config": {"name": "time_distributed_5", "trainable": true, "dtype": "float32", "layer": {"class_name": "Dense", "config": {"name": "dense_9", "trainable": true, "dtype": "float32", "units": 128, "activation": "relu", "use_bias": true, "kernel_initializer": {"class_name": "GlorotUniform", "config": {"seed": null}}, "bias_initializer": {"class_name": "Zeros", "config": {}}, "kernel_regularizer": null, "bias_regularizer": null, "activity_regularizer": null, "kernel_constraint": null, "bias_constraint": null}}}, "name": "time_distributed_5", "inbound_nodes": [[["dropout_1", 0, 0, {}]]]}, {"class_name": "TimeDistributed", "config": {"name": "time_distributed_6", "trainable": true, "dtype": "float32", "layer": {"class_name": "Dense", "config": {"name": "dense_11", "trainable": true, "dtype": "float32", "units": 128, "activation": "relu", "use_bias": true, "kernel_initializer": {"class_name": "GlorotUniform", "config": {"seed": null}}, "bias_initializer": {"class_name": "Zeros", "config": {}}, "kernel_regularizer": null, "bias_regularizer": null, "activity_regularizer": null, "kernel_constraint": null, "bias_constraint": null}}}, "name": "time_distributed_6", "inbound_nodes": [[["dropout_1", 0, 0, {}]]]}, {"class_name": "TimeDistributed", "config": {"name": "time_distributed_7", "trainable": true, "dtype": "float32", "layer": {"class_name": "Dense", "config": {"name": "dense_13", "trainable": true, "dtype": "float32", "units": 128, "activation": "relu", "use_bias": true, "kernel_initializer": {"class_name": "GlorotUniform", "config": {"seed": null}}, "bias_initializer": {"class_name": "Zeros", "config": {}}, "kernel_regularizer": null, "bias_regularizer": null, "activity_regularizer": null, "kernel_constraint": null, "bias_constraint": null}}}, "name": "time_distributed_7", "inbound_nodes": [[["dropout_1", 0, 0, {}]]]}, {"class_name": "TimeDistributed", "config": {"name": "time_distributed_8", "trainable": true, "dtype": "float32", "layer": {"class_name": "Dense", "config": {"name": "dense_15", "trainable": true, "dtype": "float32", "units": 128, "activation": "relu", "use_bias": true, "kernel_initializer": {"class_name": "GlorotUniform", "config": {"seed": null}}, "bias_initializer": {"class_name": "Zeros", "config": {}}, "kernel_regularizer": null, "bias_regularizer": null, "activity_regularizer": null, "kernel_constraint": null, "bias_constraint": null}}}, "name": "time_distributed_8", "inbound_nodes": [[["dropout_1", 0, 0, {}]]]}, {"class_name": "TimeDistributed", "config": {"name": "time_distributed_9", "trainable": true, "dtype": "float32", "layer": {"class_name": "Dense", "config": {"name": "dense_17", "trainable": true, "dtype": "float32", "units": 128, "activation": "relu", "use_bias": true, "kernel_initializer": {"class_name": "GlorotUniform", "config": {"seed": null}}, "bias_initializer": {"class_name": "Zeros", "config": {}}, "kernel_regularizer": null, "bias_regularizer": null, "activity_regularizer": null, "kernel_constraint": null, "bias_constraint": null}}}, "name": "time_distributed_9", "inbound_nodes": [[["dropout_1", 0, 0, {}]]]}, {"class_name": "TimeDistributed", "config": {"name": "time_distributed_10", "trainable": true, "dtype": "float32", "layer": {"class_name": "Dense", "config": {"name": "dense_19", "trainable": true, "dtype": "float32", "units": 128, "activation": "relu", "use_bias": true, "kernel_initializer": {"class_name": "GlorotUniform", "config": {"seed": null}}, "bias_initializer": {"class_name": "Zeros", "config": {}}, "kernel_regularizer": null, "bias_regularizer": null, "activity_regularizer": null, "kernel_constraint": null, "bias_constraint": null}}}, "name": "time_distributed_10", "inbound_nodes": [[["dropout_1", 0, 0, {}]]]}, {"class_name": "TimeDistributed", "config": {"name": "time_distributed_11", "trainable": true, "dtype": "float32", "layer": {"class_name": "Dense", "config": {"name": "dense_21", "trainable": true, "dtype": "float32", "units": 128, "activation": "relu", "use_bias": true, "kernel_initializer": {"class_name": "GlorotUniform", "config": {"seed": null}}, "bias_initializer": {"class_name": "Zeros", "config": {}}, "kernel_regularizer": null, "bias_regularizer": null, "activity_regularizer": null, "kernel_constraint": null, "bias_constraint": null}}}, "name": "time_distributed_11", "inbound_nodes": [[["dropout_1", 0, 0, {}]]]}, {"class_name": "TimeDistributed", "config": {"name": "time_distributed_12", "trainable": true, "dtype": "float32", "layer": {"class_name": "Dense", "config": {"name": "dense_23", "trainable": true, "dtype": "float32", "units": 128, "activation": "relu", "use_bias": true, "kernel_initializer": {"class_name": "GlorotUniform", "config": {"seed": null}}, "bias_initializer": {"class_name": "Zeros", "config": {}}, "kernel_regularizer": null, "bias_regularizer": null, "activity_regularizer": null, "kernel_constraint": null, "bias_constraint": null}}}, "name": "time_distributed_12", "inbound_nodes": [[["dropout_1", 0, 0, {}]]]}, {"class_name": "TimeDistributed", "config": {"name": "time_distributed_13", "trainable": true, "dtype": "float32", "layer": {"class_name": "Dense", "config": {"name": "dense_25", "trainable": true, "dtype": "float32", "units": 128, "activation": "relu", "use_bias": true, "kernel_initializer": {"class_name": "GlorotUniform", "config": {"seed": null}}, "bias_initializer": {"class_name": "Zeros", "config": {}}, "kernel_regularizer": null, "bias_regularizer": null, "activity_regularizer": null, "kernel_constraint": null, "bias_constraint": null}}}, "name": "time_distributed_13", "inbound_nodes": [[["dropout_1", 0, 0, {}]]]}, {"class_name": "TimeDistributed", "config": {"name": "time_distributed_14", "trainable": true, "dtype": "float32", "layer": {"class_name": "Dense", "config": {"name": "dense_27", "trainable": true, "dtype": "float32", "units": 128, "activation": "relu", "use_bias": true, "kernel_initializer": {"class_name": "GlorotUniform", "config": {"seed": null}}, "bias_initializer": {"class_name": "Zeros", "config": {}}, "kernel_regularizer": null, "bias_regularizer": null, "activity_regularizer": null, "kernel_constraint": null, "bias_constraint": null}}}, "name": "time_distributed_14", "inbound_nodes": [[["dropout_1", 0, 0, {}]]]}, {"class_name": "TimeDistributed", "config": {"name": "time_distributed_15", "trainable": true, "dtype": "float32", "layer": {"class_name": "Dense", "config": {"name": "dense_29", "trainable": true, "dtype": "float32", "units": 128, "activation": "relu", "use_bias": true, "kernel_initializer": {"class_name": "GlorotUniform", "config": {"seed": null}}, "bias_initializer": {"class_name": "Zeros", "config": {}}, "kernel_regularizer": null, "bias_regularizer": null, "activity_regularizer": null, "kernel_constraint": null, "bias_constraint": null}}}, "name": "time_distributed_15", "inbound_nodes": [[["dropout_1", 0, 0, {}]]]}, {"class_name": "TimeDistributed", "config": {"name": "time_distributed_16", "trainable": true, "dtype": "float32", "layer": {"class_name": "Dense", "config": {"name": "dense_31", "trainable": true, "dtype": "float32", "units": 128, "activation": "relu", "use_bias": true, "kernel_initializer": {"class_name": "GlorotUniform", "config": {"seed": null}}, "bias_initializer": {"class_name": "Zeros", "config": {}}, "kernel_regularizer": null, "bias_regularizer": null, "activity_regularizer": null, "kernel_constraint": null, "bias_constraint": null}}}, "name": "time_distributed_16", "inbound_nodes": [[["dropout_1", 0, 0, {}]]]}, {"class_name": "TimeDistributed", "config": {"name": "time_distributed_17", "trainable": true, "dtype": "float32", "layer": {"class_name": "Dense", "config": {"name": "dense_33", "trainable": true, "dtype": "float32", "units": 128, "activation": "relu", "use_bias": true, "kernel_initializer": {"class_name": "GlorotUniform", "config": {"seed": null}}, "bias_initializer": {"class_name": "Zeros", "config": {}}, "kernel_regularizer": null, "bias_regularizer": null, "activity_regularizer": null, "kernel_constraint": null, "bias_constraint": null}}}, "name": "time_distributed_17", "inbound_nodes": [[["dropout_1", 0, 0, {}]]]}, {"class_name": "TimeDistributed", "config": {"name": "time_distributed_18", "trainable": true, "dtype": "float32", "layer": {"class_name": "Dense", "config": {"name": "dense_35", "trainable": true, "dtype": "float32", "units": 128, "activation": "relu", "use_bias": true, "kernel_initializer": {"class_name": "GlorotUniform", "config": {"seed": null}}, "bias_initializer": {"class_name": "Zeros", "config": {}}, "kernel_regularizer": null, "bias_regularizer": null, "activity_regularizer": null, "kernel_constraint": null, "bias_constraint": null}}}, "name": "time_distributed_18", "inbound_nodes": [[["dropout_1", 0, 0, {}]]]}, {"class_name": "TimeDistributed", "config": {"name": "time_distributed_19", "trainable": true, "dtype": "float32", "layer": {"class_name": "Dense", "config": {"name": "dense_37", "trainable": true, "dtype": "float32", "units": 128, "activation": "relu", "use_bias": true, "kernel_initializer": {"class_name": "GlorotUniform", "config": {"seed": null}}, "bias_initializer": {"class_name": "Zeros", "config": {}}, "kernel_regularizer": null, "bias_regularizer": null, "activity_regularizer": null, "kernel_constraint": null, "bias_constraint": null}}}, "name": "time_distributed_19", "inbound_nodes": [[["dropout_1", 0, 0, {}]]]}, {"class_name": "TimeDistributed", "config": {"name": "time_distributed_20", "trainable": true, "dtype": "float32", "layer": {"class_name": "Dense", "config": {"name": "dense_39", "trainable": true, "dtype": "float32", "units": 128, "activation": "relu", "use_bias": true, "kernel_initializer": {"class_name": "GlorotUniform", "config": {"seed": null}}, "bias_initializer": {"class_name": "Zeros", "config": {}}, "kernel_regularizer": null, "bias_regularizer": null, "activity_regularizer": null, "kernel_constraint": null, "bias_constraint": null}}}, "name": "time_distributed_20", "inbound_nodes": [[["dropout_1", 0, 0, {}]]]}, {"class_name": "TimeDistributed", "config": {"name": "time_distributed_21", "trainable": true, "dtype": "float32", "layer": {"class_name": "Dense", "config": {"name": "dense_41", "trainable": true, "dtype": "float32", "units": 128, "activation": "relu", "use_bias": true, "kernel_initializer": {"class_name": "GlorotUniform", "config": {"seed": null}}, "bias_initializer": {"class_name": "Zeros", "config": {}}, "kernel_regularizer": null, "bias_regularizer": null, "activity_regularizer": null, "kernel_constraint": null, "bias_constraint": null}}}, "name": "time_distributed_21", "inbound_nodes": [[["dropout_1", 0, 0, {}]]]}, {"class_name": "TimeDistributed", "config": {"name": "time_distributed_22", "trainable": true, "dtype": "float32", "layer": {"class_name": "Dense", "config": {"name": "dense_43", "trainable": true, "dtype": "float32", "units": 128, "activation": "relu", "use_bias": true, "kernel_initializer": {"class_name": "GlorotUniform", "config": {"seed": null}}, "bias_initializer": {"class_name": "Zeros", "config": {}}, "kernel_regularizer": null, "bias_regularizer": null, "activity_regularizer": null, "kernel_constraint": null, "bias_constraint": null}}}, "name": "time_distributed_22", "inbound_nodes": [[["dropout_1", 0, 0, {}]]]}, {"class_name": "TimeDistributed", "config": {"name": "time_distributed_23", "trainable": true, "dtype": "float32", "layer": {"class_name": "Dense", "config": {"name": "dense_45", "trainable": true, "dtype": "float32", "units": 128, "activation": "relu", "use_bias": true, "kernel_initializer": {"class_name": "GlorotUniform", "config": {"seed": null}}, "bias_initializer": {"class_name": "Zeros", "config": {}}, "kernel_regularizer": null, "bias_regularizer": null, "activity_regularizer": null, "kernel_constraint": null, "bias_constraint": null}}}, "name": "time_distributed_23", "inbound_nodes": [[["dropout_1", 0, 0, {}]]]}, {"class_name": "TimeDistributed", "config": {"name": "time_distributed_24", "trainable": true, "dtype": "float32", "layer": {"class_name": "Dense", "config": {"name": "dense_47", "trainable": true, "dtype": "float32", "units": 128, "activation": "relu", "use_bias": true, "kernel_initializer": {"class_name": "GlorotUniform", "config": {"seed": null}}, "bias_initializer": {"class_name": "Zeros", "config": {}}, "kernel_regularizer": null, "bias_regularizer": null, "activity_regularizer": null, "kernel_constraint": null, "bias_constraint": null}}}, "name": "time_distributed_24", "inbound_nodes": [[["dropout_1", 0, 0, {}]]]}, {"class_name": "TimeDistributed", "config": {"name": "time_distributed_25", "trainable": true, "dtype": "float32", "layer": {"class_name": "Dense", "config": {"name": "dense_49", "trainable": true, "dtype": "float32", "units": 128, "activation": "relu", "use_bias": true, "kernel_initializer": {"class_name": "GlorotUniform", "config": {"seed": null}}, "bias_initializer": {"class_name": "Zeros", "config": {}}, "kernel_regularizer": null, "bias_regularizer": null, "activity_regularizer": null, "kernel_constraint": null, "bias_constraint": null}}}, "name": "time_distributed_25", "inbound_nodes": [[["dropout_1", 0, 0, {}]]]}, {"class_name": "TimeDistributed", "config": {"name": "time_distributed_26", "trainable": true, "dtype": "float32", "layer": {"class_name": "Dense", "config": {"name": "dense_51", "trainable": true, "dtype": "float32", "units": 128, "activation": "relu", "use_bias": true, "kernel_initializer": {"class_name": "GlorotUniform", "config": {"seed": null}}, "bias_initializer": {"class_name": "Zeros", "config": {}}, "kernel_regularizer": null, "bias_regularizer": null, "activity_regularizer": null, "kernel_constraint": null, "bias_constraint": null}}}, "name": "time_distributed_26", "inbound_nodes": [[["dropout_1", 0, 0, {}]]]}, {"class_name": "TimeDistributed", "config": {"name": "syllabic", "trainable": true, "dtype": "float32", "layer": {"class_name": "Dense", "config": {"name": "dense_2", "trainable": true, "dtype": "float32", "units": 2, "activation": "softmax", "use_bias": true, "kernel_initializer": {"class_name": "GlorotUniform", "config": {"seed": null}}, "bias_initializer": {"class_name": "Zeros", "config": {}}, "kernel_regularizer": null, "bias_regularizer": null, "activity_regularizer": null, "kernel_constraint": null, "bias_constraint": null}}}, "name": "syllabic", "inbound_nodes": [[["time_distributed_1", 0, 0, {}]]]}, {"class_name": "TimeDistributed", "config": {"name": "long", "trainable": true, "dtype": "float32", "layer": {"class_name": "Dense", "config": {"name": "dense_4", "trainable": true, "dtype": "float32", "units": 2, "activation": "softmax", "use_bias": true, "kernel_initializer": {"class_name": "GlorotUniform", "config": {"seed": null}}, "bias_initializer": {"class_name": "Zeros", "config": {}}, "kernel_regularizer": null, "bias_regularizer": null, "activity_regularizer": null, "kernel_constraint": null, "bias_constraint": null}}}, "name": "long", "inbound_nodes": [[["time_distributed_2", 0, 0, {}]]]}, {"class_name": "TimeDistributed", "config": {"name": "voice", "trainable": true, "dtype": "float32", "layer": {"class_name": "Dense", "config": {"name": "dense_6", "trainable": true, "dtype": "float32", "units": 2, "activation": "softmax", "use_bias": true, "kernel_initializer": {"class_name": "GlorotUniform", "config": {"seed": null}}, "bias_initializer": {"class_name": "Zeros", "config": {}}, "kernel_regularizer": null, "bias_regularizer": null, "activity_regularizer": null, "kernel_constraint": null, "bias_constraint": null}}}, "name": "voice", "inbound_nodes": [[["time_distributed_3", 0, 0, {}]]]}, {"class_name": "TimeDistributed", "config": {"name": "spread_glottis", "trainable": true, "dtype": "float32", "layer": {"class_name": "Dense", "config": {"name": "dense_8", "trainable": true, "dtype": "float32", "units": 2, "activation": "softmax", "use_bias": true, "kernel_initializer": {"class_name": "GlorotUniform", "config": {"seed": null}}, "bias_initializer": {"class_name": "Zeros", "config": {}}, "kernel_regularizer": null, "bias_regularizer": null, "activity_regularizer": null, "kernel_constraint": null, "bias_constraint": null}}}, "name": "spread_glottis", "inbound_nodes": [[["time_distributed_4", 0, 0, {}]]]}, {"class_name": "TimeDistributed", "config": {"name": "sonorant", "trainable": true, "dtype": "float32", "layer": {"class_name": "Dense", "config": {"name": "dense_10", "trainable": true, "dtype": "float32", "units": 2, "activation": "softmax", "use_bias": true, "kernel_initializer": {"class_name": "GlorotUniform", "config": {"seed": null}}, "bias_initializer": {"class_name": "Zeros", "config": {}}, "kernel_regularizer": null, "bias_regularizer": null, "activity_regularizer": null, "kernel_constraint": null, "bias_constraint": null}}}, "name": "sonorant", "inbound_nodes": [[["time_distributed_5", 0, 0, {}]]]}, {"class_name": "TimeDistributed", "config": {"name": "continuant", "trainable": true, "dtype": "float32", "layer": {"class_name": "Dense", "config": {"name": "dense_12", "trainable": true, "dtype": "float32", "units": 2, "activation": "softmax", "use_bias": true, "kernel_initializer": {"class_name": "GlorotUniform", "config": {"seed": null}}, "bias_initializer": {"class_name": "Zeros", "config": {}}, "kernel_regularizer": null, "bias_regularizer": null, "activity_regularizer": null, "kernel_constraint": null, "bias_constraint": null}}}, "name": "continuant", "inbound_nodes": [[["time_distributed_6", 0, 0, {}]]]}, {"class_name": "TimeDistributed", "config": {"name": "consonantal", "trainable": true, "dtype": "float32", "layer": {"class_name": "Dense", "config": {"name": "dense_14", "trainable": true, "dtype": "float32", "units": 2, "activation": "softmax", "use_bias": true, "kernel_initializer": {"class_name": "GlorotUniform", "config": {"seed": null}}, "bias_initializer": {"class_name": "Zeros", "config": {}}, "kernel_regularizer": null, "bias_regularizer": null, "activity_regularizer": null, "kernel_constraint": null, "bias_constraint": null}}}, "name": "consonantal", "inbound_nodes": [[["time_distributed_7", 0, 0, {}]]]}, {"class_name": "TimeDistributed", "config": {"name": "delayed_release", "trainable": true, "dtype": "float32", "layer": {"class_name": "Dense", "config": {"name": "dense_16", "trainable": true, "dtype": "float32", "units": 2, "activation": "softmax", "use_bias": true, "kernel_initializer": {"class_name": "GlorotUniform", "config": {"seed": null}}, "bias_initializer": {"class_name": "Zeros", "config": {}}, "kernel_regularizer": null, "bias_regularizer": null, "activity_regularizer": null, "kernel_constraint": null, "bias_constraint": null}}}, "name": "delayed_release", "inbound_nodes": [[["time_distributed_8", 0, 0, {}]]]}, {"class_name": "TimeDistributed", "config": {"name": "nasal", "trainable": true, "dtype": "float32", "layer": {"class_name": "Dense", "config": {"name": "dense_18", "trainable": true, "dtype": "float32", "units": 2, "activation": "softmax", "use_bias": true, "kernel_initializer": {"class_name": "GlorotUniform", "config": {"seed": null}}, "bias_initializer": {"class_name": "Zeros", "config": {}}, "kernel_regularizer": null, "bias_regularizer": null, "activity_regularizer": null, "kernel_constraint": null, "bias_constraint": null}}}, "name": "nasal", "inbound_nodes": [[["time_distributed_9", 0, 0, {}]]]}, {"class_name": "TimeDistributed", "config": {"name": "labial", "trainable": true, "dtype": "float32", "layer": {"class_name": "Dense", "config": {"name": "dense_20", "trainable": true, "dtype": "float32", "units": 2, "activation": "softmax", "use_bias": true, "kernel_initializer": {"class_name": "GlorotUniform", "config": {"seed": null}}, "bias_initializer": {"class_name": "Zeros", "config": {}}, "kernel_regularizer": null, "bias_regularizer": null, "activity_regularizer": null, "kernel_constraint": null, "bias_constraint": null}}}, "name": "labial", "inbound_nodes": [[["time_distributed_10", 0, 0, {}]]]}, {"class_name": "TimeDistributed", "config": {"name": "labiodental", "trainable": true, "dtype": "float32", "layer": {"class_name": "Dense", "config": {"name": "dense_22", "trainable": true, "dtype": "float32", "units": 2, "activation": "softmax", "use_bias": true, "kernel_initializer": {"class_name": "GlorotUniform", "config": {"seed": null}}, "bias_initializer": {"class_name": "Zeros", "config": {}}, "kernel_regularizer": null, "bias_regularizer": null, "activity_regularizer": null, "kernel_constraint": null, "bias_constraint": null}}}, "name": "labiodental", "inbound_nodes": [[["time_distributed_11", 0, 0, {}]]]}, {"class_name": "TimeDistributed", "config": {"name": "round", "trainable": true, "dtype": "float32", "layer": {"class_name": "Dense", "config": {"name": "dense_24", "trainable": true, "dtype": "float32", "units": 2, "activation": "softmax", "use_bias": true, "kernel_initializer": {"class_name": "GlorotUniform", "config": {"seed": null}}, "bias_initializer": {"class_name": "Zeros", "config": {}}, "kernel_regularizer": null, "bias_regularizer": null, "activity_regularizer": null, "kernel_constraint": null, "bias_constraint": null}}}, "name": "round", "inbound_nodes": [[["time_distributed_12", 0, 0, {}]]]}, {"class_name": "TimeDistributed", "config": {"name": "approximant", "trainable": true, "dtype": "float32", "layer": {"class_name": "Dense", "config": {"name": "dense_26", "trainable": true, "dtype": "float32", "units": 2, "activation": "softmax", "use_bias": true, "kernel_initializer": {"class_name": "GlorotUniform", "config": {"seed": null}}, "bias_initializer": {"class_name": "Zeros", "config": {}}, "kernel_regularizer": null, "bias_regularizer": null, "activity_regularizer": null, "kernel_constraint": null, "bias_constraint": null}}}, "name": "approximant", "inbound_nodes": [[["time_distributed_13", 0, 0, {}]]]}, {"class_name": "TimeDistributed", "config": {"name": "lateral", "trainable": true, "dtype": "float32", "layer": {"class_name": "Dense", "config": {"name": "dense_28", "trainable": true, "dtype": "float32", "units": 2, "activation": "softmax", "use_bias": true, "kernel_initializer": {"class_name": "GlorotUniform", "config": {"seed": null}}, "bias_initializer": {"class_name": "Zeros", "config": {}}, "kernel_regularizer": null, "bias_regularizer": null, "activity_regularizer": null, "kernel_constraint": null, "bias_constraint": null}}}, "name": "lateral", "inbound_nodes": [[["time_distributed_14", 0, 0, {}]]]}, {"class_name": "TimeDistributed", "config": {"name": "coronal", "trainable": true, "dtype": "float32", "layer": {"class_name": "Dense", "config": {"name": "dense_30", "trainable": true, "dtype": "float32", "units": 2, "activation": "softmax", "use_bias": true, "kernel_initializer": {"class_name": "GlorotUniform", "config": {"seed": null}}, "bias_initializer": {"class_name": "Zeros", "config": {}}, "kernel_regularizer": null, "bias_regularizer": null, "activity_regularizer": null, "kernel_constraint": null, "bias_constraint": null}}}, "name": "coronal", "inbound_nodes": [[["time_distributed_15", 0, 0, {}]]]}, {"class_name": "TimeDistributed", "config": {"name": "anterior", "trainable": true, "dtype": "float32", "layer": {"class_name": "Dense", "config": {"name": "dense_32", "trainable": true, "dtype": "float32", "units": 2, "activation": "softmax", "use_bias": true, "kernel_initializer": {"class_name": "GlorotUniform", "config": {"seed": null}}, "bias_initializer": {"class_name": "Zeros", "config": {}}, "kernel_regularizer": null, "bias_regularizer": null, "activity_regularizer": null, "kernel_constraint": null, "bias_constraint": null}}}, "name": "anterior", "inbound_nodes": [[["time_distributed_16", 0, 0, {}]]]}, {"class_name": "TimeDistributed", "config": {"name": "distributed", "trainable": true, "dtype": "float32", "layer": {"class_name": "Dense", "config": {"name": "dense_34", "trainable": true, "dtype": "float32", "units": 2, "activation": "softmax", "use_bias": true, "kernel_initializer": {"class_name": "GlorotUniform", "config": {"seed": null}}, "bias_initializer": {"class_name": "Zeros", "config": {}}, "kernel_regularizer": null, "bias_regularizer": null, "activity_regularizer": null, "kernel_constraint": null, "bias_constraint": null}}}, "name": "distributed", "inbound_nodes": [[["time_distributed_17", 0, 0, {}]]]}, {"class_name": "TimeDistributed", "config": {"name": "strident", "trainable": true, "dtype": "float32", "layer": {"class_name": "Dense", "config": {"name": "dense_36", "trainable": true, "dtype": "float32", "units": 2, "activation": "softmax", "use_bias": true, "kernel_initializer": {"class_name": "GlorotUniform", "config": {"seed": null}}, "bias_initializer": {"class_name": "Zeros", "config": {}}, "kernel_regularizer": null, "bias_regularizer": null, "activity_regularizer": null, "kernel_constraint": null, "bias_constraint": null}}}, "name": "strident", "inbound_nodes": [[["time_distributed_18", 0, 0, {}]]]}, {"class_name": "TimeDistributed", "config": {"name": "dorsal", "trainable": true, "dtype": "float32", "layer": {"class_name": "Dense", "config": {"name": "dense_38", "trainable": true, "dtype": "float32", "units": 2, "activation": "softmax", "use_bias": true, "kernel_initializer": {"class_name": "GlorotUniform", "config": {"seed": null}}, "bias_initializer": {"class_name": "Zeros", "config": {}}, "kernel_regularizer": null, "bias_regularizer": null, "activity_regularizer": null, "kernel_constraint": null, "bias_constraint": null}}}, "name": "dorsal", "inbound_nodes": [[["time_distributed_19", 0, 0, {}]]]}, {"class_name": "TimeDistributed", "config": {"name": "high", "trainable": true, "dtype": "float32", "layer": {"class_name": "Dense", "config": {"name": "dense_40", "trainable": true, "dtype": "float32", "units": 2, "activation": "softmax", "use_bias": true, "kernel_initializer": {"class_name": "GlorotUniform", "config": {"seed": null}}, "bias_initializer": {"class_name": "Zeros", "config": {}}, "kernel_regularizer": null, "bias_regularizer": null, "activity_regularizer": null, "kernel_constraint": null, "bias_constraint": null}}}, "name": "high", "inbound_nodes": [[["time_distributed_20", 0, 0, {}]]]}, {"class_name": "TimeDistributed", "config": {"name": "low", "trainable": true, "dtype": "float32", "layer": {"class_name": "Dense", "config": {"name": "dense_42", "trainable": true, "dtype": "float32", "units": 2, "activation": "softmax", "use_bias": true, "kernel_initializer": {"class_name": "GlorotUniform", "config": {"seed": null}}, "bias_initializer": {"class_name": "Zeros", "config": {}}, "kernel_regularizer": null, "bias_regularizer": null, "activity_regularizer": null, "kernel_constraint": null, "bias_constraint": null}}}, "name": "low", "inbound_nodes": [[["time_distributed_21", 0, 0, {}]]]}, {"class_name": "TimeDistributed", "config": {"name": "front", "trainable": true, "dtype": "float32", "layer": {"class_name": "Dense", "config": {"name": "dense_44", "trainable": true, "dtype": "float32", "units": 2, "activation": "softmax", "use_bias": true, "kernel_initializer": {"class_name": "GlorotUniform", "config": {"seed": null}}, "bias_initializer": {"class_name": "Zeros", "config": {}}, "kernel_regularizer": null, "bias_regularizer": null, "activity_regularizer": null, "kernel_constraint": null, "bias_constraint": null}}}, "name": "front", "inbound_nodes": [[["time_distributed_22", 0, 0, {}]]]}, {"class_name": "TimeDistributed", "config": {"name": "back", "trainable": true, "dtype": "float32", "layer": {"class_name": "Dense", "config": {"name": "dense_46", "trainable": true, "dtype": "float32", "units": 2, "activation": "softmax", "use_bias": true, "kernel_initializer": {"class_name": "GlorotUniform", "config": {"seed": null}}, "bias_initializer": {"class_name": "Zeros", "config": {}}, "kernel_regularizer": null, "bias_regularizer": null, "activity_regularizer": null, "kernel_constraint": null, "bias_constraint": null}}}, "name": "back", "inbound_nodes": [[["time_distributed_23", 0, 0, {}]]]}, {"class_name": "TimeDistributed", "config": {"name": "tense", "trainable": true, "dtype": "float32", "layer": {"class_name": "Dense", "config": {"name": "dense_48", "trainable": true, "dtype": "float32", "units": 2, "activation": "softmax", "use_bias": true, "kernel_initializer": {"class_name": "GlorotUniform", "config": {"seed": null}}, "bias_initializer": {"class_name": "Zeros", "config": {}}, "kernel_regularizer": null, "bias_regularizer": null, "activity_regularizer": null, "kernel_constraint": null, "bias_constraint": null}}}, "name": "tense", "inbound_nodes": [[["time_distributed_24", 0, 0, {}]]]}, {"class_name": "TimeDistributed", "config": {"name": "tap", "trainable": true, "dtype": "float32", "layer": {"class_name": "Dense", "config": {"name": "dense_50", "trainable": true, "dtype": "float32", "units": 2, "activation": "softmax", "use_bias": true, "kernel_initializer": {"class_name": "GlorotUniform", "config": {"seed": null}}, "bias_initializer": {"class_name": "Zeros", "config": {}}, "kernel_regularizer": null, "bias_regularizer": null, "activity_regularizer": null, "kernel_constraint": null, "bias_constraint": null}}}, "name": "tap", "inbound_nodes": [[["time_distributed_25", 0, 0, {}]]]}, {"class_name": "TimeDistributed", "config": {"name": "pause", "trainable": true, "dtype": "float32", "layer": {"class_name": "Dense", "config": {"name": "dense_52", "trainable": true, "dtype": "float32", "units": 2, "activation": "softmax", "use_bias": true, "kernel_initializer": {"class_name": "GlorotUniform", "config": {"seed": null}}, "bias_initializer": {"class_name": "Zeros", "config": {}}, "kernel_regularizer": null, "bias_regularizer": null, "activity_regularizer": null, "kernel_constraint": null, "bias_constraint": null}}}, "name": "pause", "inbound_nodes": [[["time_distributed_26", 0, 0, {}]]]}], "input_layers": [["input_1", 0, 0]], "output_layers": [["syllabic", 0, 0], ["long", 0, 0], ["voice", 0, 0], ["spread_glottis", 0, 0], ["sonorant", 0, 0], ["continuant", 0, 0], ["consonantal", 0, 0], ["delayed_release", 0, 0], ["nasal", 0, 0], ["labial", 0, 0], ["labiodental", 0, 0], ["round", 0, 0], ["approximant", 0, 0], ["lateral", 0, 0], ["coronal", 0, 0], ["anterior", 0, 0], ["distributed", 0, 0], ["strident", 0, 0], ["dorsal", 0, 0], ["high", 0, 0], ["low", 0, 0], ["front", 0, 0], ["back", 0, 0], ["tense", 0, 0], ["tap", 0, 0], ["pause", 0, 0]]}, "keras_version": "2.8.0", "backend": "tensorflow"}